app/src/main/python/ReleaseModels/Copy9.tflite (tflite, 180744 bytes, 10 tensors)

sequential/conv2d/BiasAdd/ReadVariableOp f4 [16]
00000000: 31b2 f8be cbec 953e 60b6 36bf 84f3 87be
00000010: f1a5 b73e 19f8 123b 0ff0 823b e595 97be
00000020: c2bd ca3e ca3b b7be 092a 8bbe c725 a8bf
00000030: 93c1 90bb a90d 15bf 90b0 98be 1240 61bb
-0.4857345 0.2928222 -0.7137203 -0.26552975 0.3586879 0.002242571 0.0039959024 -0.29606548
0.395979 -0.35787803 -0.27180508 -1.3136529 -0.004417607 -0.5822397 -0.29822206 -0.0034370464

sequential/conv2d_1/BiasAdd/ReadVariableOp f4 [32]
00000000: 2ed9 5a3e 2289 a0be 49f7 fcbe 0003 91be
00000010: 1c96 ddbe 1760 dcbc f40a b2be 183c 23bf
00000020: 55b0 12be a38e 26bd d924 2abf b3f0 00bf
00000030: 2d4c b93e 8518 46bd a6ce e8bc 130d 19bf
00000040: 3175 10bf 490e ef3d ce40 02bf 83bb 0abf
00000050: 921b 12bf 21ea 04bf 587d 6ebd 2f3b d1be
00000060: 1ab2 b73e ef55 283e bacf 073e 5c27 fabe
00000070: b653 ecbe 0dac 66bd fe60 5abe 605a 21be
0.2137191 -0.31354624 -0.49407414 -0.283226 -0.43278587 -0.026901288 -0.34773982 -0.6376357
-0.14325078 -0.040663373 -0.66462475 -0.5036728 0.3619093 -0.048363227 -0.02841885 -0.59785575
-0.5642882 0.116726466 -0.50880134 -0.5419237 -0.5707332 -0.5191975 -0.058225006 -0.40865466
0.35878068 0.16439031 0.13262835 -0.48858154 -0.46157616 -0.056316424 -0.21326062 -0.15757132

sequential/conv2d_2/BiasAdd/ReadVariableOp f4 [64]
00000000: b610 8c3c a992 bd3d 5d03 31be 0098 183d
00000010: 514b a33e 0e98 9b3e 565e 5b3d ddf8 6bbe
00000020: 4889 883e cf6f 193e abdc c53c 4250 51be
00000030: 3068 29be 6d2b df3d fdec a1bd 516f 53be
00000040: a8ac a5bd 7614 0fbe a308 593e 6f63 26be
00000050: 6e90 633b 2cb2 9f3c 4b26 0f3d d1a5 0cbd
00000060: c8f4 acbc 3497 c7be af0a 433e 3b07 55bd
00000070: eb53 72be c70b 9b3d 381a 1e3e 20aa 77bd
00000080: 794d 81be cf32 8bbc bc4e ca3d 792f b63e
00000090: 6359 9e3d 8221 e1bd 9b60 1ebe 0b4d 033c
000000a0: 07b2 953d c1a4 44bd 52cd ecbc ff63 6bbe
000000b0: 2ad9 3b3c c7a2 49be c0c8 02bf 1ea1 e03d
000000c0: ddad 023e 6453 373a 02da 2c3e 10e0 d3bd
000000d0: b82a 42bd 94bc 5bbe c4ec f3bd 51a4 9a3e
000000e0: c8a5 14be ad19 03be a170 953e 482b 583d
000000f0: c62f 7fbe 5a50 bdbd 1d4b 493e ad03 293e
0.017097812 0.09256489 -0.17286439 0.037254333 0.318934 0.30389446 0.053556763 -0.23044153
0.26667237 0.14984058 0.024153074 -0.20440772 -0.1654365 0.10896955 -0.0790653 -0.20647933
-0.08089572 -0.13972649 0.21194701 -0.16248868 0.0034723538 0.019494139 0.03494863 -0.034337822
-0.021112815 -0.38982546 0.19047044 -0.05200885 -0.23664825 0.07570606 0.15439689 -0.06046498
-0.2525442 -0.016992 0.09878299 0.35583094 0.07731893 -0.10992719 -0.1546654 0.008013974
0.07309347 -0.048008684 -0.028906498 -0.22987364 0.01146535 -0.19691001 -0.5108757 0.10968231
0.12761636 0.0006993322 0.16880038 -0.10345471 -0.04740402 -0.21458656 -0.11910394 0.30203488
-0.14516366 -0.12802763 0.29187492 0.05277565 -0.24920568 -0.092438415 0.1965756 0.16505308

sequential/conv2d_3/BiasAdd/ReadVariableOp f4 [128]
00000000: 26e5 92be 2abf 20be 579f bdbd f1af 0cbe
00000010: da64 49bd a64d 3fbe 46fd b5bd b8c0 17be
00000020: 2594 83be 23d5 54be 36d5 e7bc f954 57bd
00000030: 69f9 83bd f9d6 cfbd 3c0b 4bbe 0ed1 76be
00000040: 5ffe 6bbd 8d1d f2bd ab11 9ebe 50f2 293e
00000050: 9149 57be 257a 14be 611b 023d eb14 213e
00000060: cbb6 a63d b539 bcbd 1a12 e7bc cb55 2fbe
00000070: 5377 5abe fda9 86be 3031 3abe dfc4 1fbe
00000080: ce24 0ebe f6af ffbd f508 45be 06a4 3fbe
00000090: c940 20be b76e 31be ae40 0cbe 997a 10be
000000a0: 9888 aebd 1616 0cbe ef7f 0bbe fa75 84be
000000b0: 98e6 99be 12da acbd db82 a1bd f7a8 91be
000000c0: 8c34 a4be f9d1 953b dc4f 9abd 34fd edbd
000000d0: 5b5f a93d cf71 16be e927 44be 75c9 12bd
000000e0: 161f d6bd 96da 34be 55c3 61be 0211 0dbe
000000f0: 94dc acbe d6c7 083e e87b 10be 4623 9cbe
00000100: c14a 40be 1804 66be 125d 16bd ecb4 79be
00000110: 9b7d 87be 7665 84be 0e64 84be 0225 ddbd
00000120: eaf3 48be a907 47be daf9 75bd 68e6 28be
00000130: 3e1e 7e3c 75c2 e03c 5c7e 24be a82b a0bd
00000140: 05b1 22be 0ecb 803e 3264 1e3e 5db8 5ebe
00000150: 7a96 26be 5818 01be ca14 03be de53 14bc
00000160: af9f 0cbe 904b 00be 6ab4 253c d4dc 47be
00000170: 308d bebd 0625 93bd 3ed2 fbbd e7e1 7ebe
00000180: 48e7 89be eafd 8cbd 47ea 21be 0e56 f1bd
00000190: 1930 bdbd 9220 5bbe e6ff babd ffe1 10bd
000001a0: 3a45 063d abc8 d6bd c4e7 80bc 27ba 34bd
000001b0: 506b bdbd 4312 fdbc 1ac4 313d d791 08be
000001c0: e44b 903e 4fa3 75bd dd32 1fbe beba a8bd
000001d0: 14a3 2abe a3c3 3dbe af72 0ebe 6dc2 ccbd
000001e0: d6c2 12be 142b 5abe 8e1c 64be 4be9 aa3b
000001f0: 87bb 11be c37b 923b fd71 64be 7065 3ebe
-0.2869045 -0.15697923 -0.09258907 -0.13738991 -0.049168445 -0.18681964 -0.08886199 -0.1481961
-0.25698963 -0.2078443 -0.02829991 -0.05257127 -0.064440556 -0.10148425 -0.19828504 -0.24103186
-0.057615634 -0.118220426 -0.30872855 0.16596341 -0.21024157 -0.1449972 0.03176439 0.15730636
0.08140334 -0.09190694 -0.028206874 -0.17122571 -0.21334581 -0.26301566 -0.18182826 -0.15602444
-0.13881227 -0.12484734 -0.19241698 -0.18714914 -0.15649714 -0.1732739 -0.13696548 -0.14109267
-0.08522147 -0.136803 -0.13623022 -0.2587126 -0.30058742 -0.08440031 -0.07886287 -0.28449222
-0.3207134 0.00457215 -0.07534763 -0.1162056 0.08270141 -0.14691852 -0.1915585 -0.035836656
-0.10455148 -0.17661509 -0.2204717 -0.13776019 -0.33762038 0.13357481 -0.14109766 -0.30495661
-0.18778516 -0.22462499 -0.036709853 -0.24385422 -0.26463017 -0.2585866 -0.25857586 -0.10798074
-0.19624296 -0.19436516 -0.06005273 -0.16494143 0.01551014 0.027436474 -0.16063827 -0.07820827
-0.1588784 0.25154918 0.15467909 -0.21750017 -0.1626834 -0.12606943 -0.12800899 -0.009053199
-0.1373279 -0.12528825 0.010113815 -0.19517833 -0.09304273 -0.07184796 -0.1229596 -0.24890862
-0.26934266 -0.06884368 -0.15812026 -0.11783992 -0.092376895 -0.21399143 -0.0913084 -0.035371777
0.032780863 -0.10487493 -0.015735514 -0.04412284 -0.09248984 -0.030892497 0.043399908 -0.13336883
0.281829 -0.059970196 -0.15546747 -0.08238743 -0.16663772 -0.1853166 -0.13910936 -0.09998021
-0.14332137 -0.21305496 -0.22276518 0.005215799 -0.14231692 0.00447032 -0.22309108 -0.18593383

sequential/conv2d/Conv2D f4 [16, 2, 2, 1]
00000000: e1f2 7fbe 4927 7abe 1d6e 553e c1b5 0a3e
00000010: 42f3 a2be 575d bdbd 2a9b 3cbe 984e 39bd
00000020: 3fe1 debb ffdc 27be d355 10bf 67db f8be
00000030: fb5b de3d 06f8 26be 2e59 073f 5f2b a73e
00000040: 855d 4dbe c003 b2bd da3d c03e a463 e03d
00000050: 14f7 cfbe dd4e bc3e aabf fabe 288a d33e
00000060: c751 23be 868e 88be 9aa4 5a3d 0380 bdbe
00000070: d916 81be 9c95 4cbe 1090 a1be 9acc d5be
00000080: b1ee 71bd 5ffd 98be 993d 473e d952 bbbe
00000090: afa2 29be aa8c 45be 3ccb 7b3e 4eb3 373e
000000a0: fdab 0cbd d8f2 1d3d d44c 993e 466f 143f
000000b0: 7527 223f cf31 f73e 034a 50bf 1a17 13bf
000000c0: 8a51 a3be 512c 4fbe 0f39 bf3d 1a8c bf3d
000000d0: bc89 64be 6b10 95be 65e2 8b3c 87cf 41bc
000000e0: f27a 013d c012 fa3d aa32 323f 62ab c53e
000000f0: 850d e33e 4cd7 063f c697 aa3e 2c04 543e
-0.24994995 -0.24429049 0.20842786 0.13545896 -0.31826216 -0.09246319 -0.18418565 -0.04524097
-0.006801754 -0.16392897 -0.5638096 -0.4860489 0.10857388 -0.16305551 0.5287045 0.32650277
-0.20055206 -0.086921215 0.3754719 0.10956505 -0.40618193 0.36778918 -0.48974353 0.41316342
-0.15949164 -0.26671237 0.053379633 -0.37011728 -0.25212744 -0.19978946 -0.31555223 -0.4175766
-0.059065524 -0.29880807 0.19457091 -0.36586645 -0.16565965 -0.1929194 0.24589247 0.17939493
-0.03434371 0.038561672 0.29941428 0.5798229 0.63341457 0.48280188 -0.8136293 -0.57457125
-0.31898147 -0.20231749 0.09337055 0.09352894 -0.22318166 -0.29114088 0.017075727 -0.0118292635
0.03161139 0.122106075 0.6960856 0.38607317 0.44346252 0.52672267 0.3331892 0.20704716

sequential/conv2d_1/Conv2D f4 [32, 2, 2, 16]
00000000: d350 073d 80e1 023e 8faa f43e 9293 f33b
00000010: f8e2 8fbb 12ef 853e 41df 933c aed6 163e
00000020: aa1c f23c f1aa a3bc 0b80 00be a240 21bd
00000030: dc14 f33b 41b2 78bc c4f4 23be 6b50 4abe
00000040: 457c c3ba 493a cb3c c542 b73e 0136 a1bd
00000050: 4a5f 0dbd 64be 853e 0b73 0b3e 3d6c 113e
00000060: 4dc5 523d 5b25 bcbb 2d7b f4bd 52a4 8cbd
00000070: 4844 5f3c 101b 943d cbbf 81be 12fb 54be
00000080: f371 b1be bb3d 55be 1487 aebe 7b8a 80bc
00000090: ab85 00be 07e3 c0bd e543 94be c1bb 5cbe
000000a0: 6922 80be edcb 8ebe 011b 233d cfbb b3be
000000b0: 956c b3be 5edc 90be d22a c23c 0e14 523e
000000c0: e85f d2be 1a52 d6bd fc88 78be db95 c93d
000000d0: c703 6ebe 291d 1a3d 85e4 96be 3a45 0fbe
000000e0: 839b 1abe 1039 aabe 593b eabc eb37 9dbe
000000f0: 54e5 94be a895 8bbe 4e79 0f3e a78f bf3e
00000100: 8fe7 983b 65f6 fc3c 5a6c 5c3e 0cb9 14bf
00000110: 18ef 23be f433 86bb 699a 873d 2dcb 8c3e
00000120: 2058 1a3d 603d 11bd feb1 4bbf 02b6 273c
00000130: 2222 aebc 4edd a93d 6c06 07bf 429e 81bf
00000140: 4d52 92bc 400a 333d 7a38 083e b40d 0bbf
00000150: 08b4 e7bd 8df6 a53d 692a 2e3e eb2d 243d
00000160: a9e5 143e 192f f8bb 933e 17bf e726 4cbd
00000170: 52c3 d53d dfd2 333d 5e35 10bf 8897 57bf
00000180: 93eb 863c 2671 56be 5437 0cbe 1cc5 be3d
00000190: e177 083e 4cda 23be 3e6b b7be ef30 bdbe
000001a0: 96f5 28be 6bbf 73bc 28d8 943d e388 093e
000001b0: 527f 8abc 3bc8 06be 87eb 183e e965 933d
000001c0: 12d5 c43d 3a8c aebe f56b 40be ed30 f33b
000001d0: 6b31 483e 034b 94bd 187a 86be 8888 b9be
000001e0: 8d72 afbe 6283 6b3d 74b8 813d 5977 833d
000001f0: 6e92 3b3d bf90 13be 4e44 313d fca6 763e
00000200: 56d9 783d 5047 01be 6fae 05bf b133 2c3e
00000210: aa2a 023e 1a91 79be d3ec a0be 8b61 03bf
00000220: 979c 33be 09d5 e43d c1df 4c3e a98f a8bd
00000230: c1a0 33bb c7ad a3bd 07d1 133d bbda ee3d
00000240: 8e86 983d f865 b7bd 8a2d dabe d872 bdbb
00000250: be29 323d bab1 b0be a411 09be 86c2 fbbe
00000260: 6134 eabd f28a 053e 249c b7bb 46df aebd
00000270: 7ea5 023d 8488 3f3d 1a31 533d e248 293c
00000280: 6dc6 23be 5c0f 943d ffba 1a3e e82b 1cbf
00000290: e930 fabe fea8 5b3e 682b 2f3e 683c f13d
000002a0: 4139 b43d fd12 97be 1aa7 e9be e540 af3e
000002b0: 2883 5a3d 5c96 25bd 71ac ecbe 66b3 8c3e
000002c0: 1f20 183d 3713 5f3d ac02 f53d 693f efbe
000002d0: 973a 25be 684f 0fbe 30a2 613e 9626 a93d
000002e0: 0642 063e e5cb 59be fc3f 02bf 75e7 173e
000002f0: 6cb7 46bc 6f90 a53d e056 03bf 102e d83d
00000300: 9175 98be 5c1f c93d c017 e13d e109 58bf
00000310: 8286 58bf 5c86 003f 9524 5f3e d3dd 953c
00000320: 8777 e63d f400 40bf 13b1 34bf 0c71 0bbe
00000330: f95a 0ebe 9c1e 0cbc 014f b8be daf0 92bd
00000340: 07eb 75be 8fd3 c23d 3234 223e e2ec 3ebf
00000350: edac 64bf feb5 d33e e39d 5e3e aafd c53e
00000360: d05a 193e e8b0 06bf 896e ecbe 2433 42be
00000370: 3003 06be a1e5 f03c 1819 bebe 2e9c 14be
00000380: 1b7b 4bbd a66d 65bc 00db 0f3c b3b0 4c3c
00000390: dd5a 0cbe 990a af3e da42 2c3c 14f4 8a3d
000003a0: 6b90 31bc 9fc2 dcbd 20a5 103a d7b9 9e3e
000003b0: e85b dbbc 5411 c7bc 4b02 afbd 3215 f0bd
000003c0: 7995 fbbd 980f e9bd aa61 613e 01db 063e
000003d0: aea8 5e3d aed5 e53e 0c5b b8bd bb51 47bd
000003e0: afdf f7bd a02e 80bd b127 073e b54d ba3d
000003f0: a3ac 4bbd 2c03 2bbe 9613 193e e0be 8abd
0.033036064 0.12781334 0.47786376 0.0074333632 -0.0043910705 0.2615896 0.018050792 0.14730331
0.029554684 -0.019978972 -0.12548845 -0.03936828 0.007418258 -0.015179218 -0.1601134 -0.1975724
-0.0014914355 0.024808066 0.3579313 -0.078716286 -0.034514703 0.2612182 0.13618104 0.14201446
0.051457692 -0.005741758 -0.119375564 -0.06867279 0.013627119 0.07231724 -0.2534164 -0.207989
-0.3465725 -0.2082433 -0.3408743 -0.015691033 -0.1255099 -0.09418302 -0.2895805 -0.21555997
-0.25026253 -0.27889958 0.039820675 -0.35104224 -0.3504378 -0.28293127 0.023702059 0.20515463
-0.41088796 -0.104648784 -0.24271005 0.09843036 -0.23243628 0.037625466 -0.29471222 -0.13991252
-0.15098386 -0.3324666 -0.028592752 -0.30706725 -0.29081213 -0.27262616 0.14011118 0.37414286
0.004666276 0.030879209 0.21525708 -0.5809486 -0.16009176 -0.0040955488 0.06621248 0.2749876
0.0376817 -0.035458922 -0.7956847 0.010236265 -0.02125651 0.08294164 -0.52744174 -1.0126421
-0.01786151 0.043710947 0.13302794 -0.54317784 -0.11313635 0.081036665 0.17008366 0.040082853
0.14540733 -0.007573974 -0.59079856 -0.049841788 0.10437645 0.043902274 -0.5633143 -0.84215593
0.016469752 -0.209416 -0.13692981 0.093149394 0.1332698 -0.16001242 -0.35824007 -0.36951396
-0.16499934 -0.014877181 0.07267791 0.13431124 -0.016906414 -0.1316232 0.14933597 0.07197172
0.096109524 -0.3409136 -0.18791182 0.007421604 0.19550101 -0.0724087 -0.26265025 -0.36236978
-0.34267083 0.057498343 0.0633401 0.06419248 0.045793943 -0.14410685 0.04327803 0.24087137
0.060754143 -0.1262486 -0.5221929 0.16816594 0.12711588 -0.24371758 -0.31430683 -0.51320714
-0.17540203 0.11173446 0.2000723 -0.08230526 -0.002740905 -0.0799213 0.036088016 0.11662813
0.07447539 -0.08954996 -0.4261287 -0.0057815127 0.04349684 -0.34510595 -0.13385636 -0.49171847
-0.11435772 0.13041285 -0.00560333 -0.0853868 0.031896107 0.04676105 0.0515605 0.010332318
-0.15993662 0.07229492 0.15110396 -0.61004496 -0.4886544 0.21451184 0.17106402 0.117791
0.08799983 -0.29506674 -0.456353 0.34229198 0.053347737 -0.040426597 -0.46225312 0.2748062
0.037140008 0.054461684 0.119634 -0.46728066 -0.16135632 -0.13995135 0.22034526 0.08259313
0.13111123 -0.21269186 -0.5087888 0.14834388 -0.012128692 0.08084189 -0.51304436 0.10555661
-0.29777196 0.098204345 0.10990858 -0.84390074 -0.8458024 0.50205016 0.21791299 0.01829425
0.11253267 -0.75001454 -0.70582694 -0.13617343 -0.13901891 -0.00855222 -0.35997775 -0.07174845
-0.24015437 0.09513008 0.15840223 -0.74580204 -0.89326364 0.41349787 0.21739917 0.38670093
0.14976048 -0.5261369 -0.46178082 -0.18964821 -0.13087153 0.02940637 -0.3712852 -0.14512703
-0.04967795 -0.014003193 0.008780241 0.0124933 -0.13706537 0.34187773 0.0105139855 0.067848355
-0.010837655 -0.107793085 0.00055177696 0.3100116 -0.026777223 -0.024300255 -0.08545359 -0.11722793
-0.12284369 -0.113799274 0.22009912 0.13169481 0.054360084 0.44889587 -0.09001741 -0.04866193
-0.12103211 -0.06258893 0.13198735 0.09096853 -0.049725186 -0.16700429 0.14948878 -0.06774688

sequential/conv2d_2/Conv2D f4 [64, 2, 2, 32]
00000000: f63c 5c3e 2017 c6be f66b 25bd 6cfb a13d
00000010: c8c1 143e 9169 f63b eda6 383d 00a8 803c
00000020: 7905 89be 5f44 423d 57d8 29bd c5b1 a5bd
00000030: 9404 1abe dc86 d5bd fe95 c03d cf9b 16bd
00000040: c42a d43d 72ab 93be 997f a7bd e48d a63d
00000050: 4bf4 9a3d 0953 f0bd 1563 79be 9825 063e
00000060: 55c6 c7bd a945 37be 74c4 1f3d 7754 8f3c
00000070: 2b16 253e 15a8 04be 5801 33be 28b6 8b3c
00000080: 0933 c5bc d622 b9be 62d2 a0ba be0c 043e
00000090: 9ccf 183e 6645 4d3e 2dd9 17bc 49d5 92bc
000000a0: 4c08 68be 6b83 1b3e 438d 8dbc 7259 07bb
000000b0: 8541 a1bd 9c55 a7bd 0d18 b13c 3d6c ca3d
000000c0: 7672 7b3c a9b4 f2bd 5582 84bd c117 c83c
000000d0: 74a6 283e 9291 9dbd 2a3a 4cbe d5e6 423e
000000e0: 6b04 c2bc 0662 d1be dc8f 00be d3dd 983d
000000f0: c95a 613e 8a9a c63b eb1f b3bd 605b 7ebc
00000100: 8f7b e03c f0cd 113d 78bf 9e3b 60f7 053b
00000110: e102 20be 3a32 3a3e b02b c03b cb1c c9bd
00000120: 7177 2cbd 9b44 df3b a487 d93d 9e8b 883c
00000130: a019 1f3b bf43 8abd 7618 833e de52 0dbe
00000140: e0ab 61be d76e 223e 167b 84bd 43d4 e6bc
00000150: c49d 2fbd 7f06 00be 9745 843e 8ab0 3abe
00000160: fb8e e6bc 14fd 3b3d 106e 85bc f133 fcbd
00000170: 8925 bcbc 23f9 633d b432 25be f582 c13d
00000180: f97d 753e b302 8a3c f9b5 8cbe f76c 87bc
00000190: 347b 3f3d 5f14 2dbd ca5d 3cbe d19b 013c
000001a0: 03d2 f7bc 7e52 98bd 1c5c 823d 797b 9dbd
000001b0: 59a2 f03d 3b06 49bd 4d73 cbbc dd4f 7bbe
000001c0: d0cc 4ebe b0b4 f33d 98e5 09be 02bf a2bd
000001d0: fd99 a13c 28bc 28be 07e8 6e3e ee49 67be
000001e0: 3861 ea3d 506a 133e 7f53 463d e5a7 1ebe
000001f0: 3635 69bd 322c c33c 7385 36be 92c7 b63c
00000200: 3f33 553e c99b eabd 336d e53d be91 43bd
00000210: 8951 34bd d691 663d 57f2 5dbd c5cb cabd
00000220: ae8c 82be 4d3e 09bf 4ea0 2d3b f238 553c
00000230: a891 05bd cf35 2b3e c140 87be cc34 f9bd
00000240: 5e08 fdbd d5d5 44be b03d b7be 4b45 34be
00000250: e78f 873d 6067 40bd 3f10 133e d025 02be
00000260: 04bc 86bb 9ad5 15be 18da cbbe 9c17 e33d
00000270: 5374 6d3e 76df 9cbc bcfe d23d 78db 58bf
00000280: de08 bc3d f33f 9abd a42e e3bc 8829 d2bc
00000290: f1ee aabd ffea 9e3b aeda babd 66eb 93bd
000002a0: c879 26bc ca4e 0abf 8307 013e cd3a c23c
000002b0: e71c 27be 6d28 5c3e 829c 41bc fcb1 bcbd
000002c0: cb80 853d 77ed 47be d2cb 88be a50d 18bd
000002d0: 00ab 2a3e 715b c33c 8e0e 44bc 07ce 1bbe
000002e0: 5c88 b53c 01a2 2a3e 4790 073e ce12 6dbb
000002f0: 2ba9 bdbd abc7 92bc 54b5 bcbc 5843 34bf
00000300: 4fa5 0c3e feca 973c e96a b53c 9a6c ffbd
00000310: 4ca6 703e 0232 41be bf0e 5bbe 89a6 23bd
00000320: e0dc e53d b4ae c03c bfc0 ecbc c75e 35bd
00000330: 08b1 683e a4f1 03be 0ad6 9e3d 1c9a 5c3d
00000340: 66d0 a5bd c372 0fbe 91e9 9abe aa37 073c
00000350: d88f c8be d5f0 cbbd 0d50 fa3c 3581 c4bd
00000360: c6e8 cdbe d532 433d 41b2 5d3e 7bb2 c2bd
00000370: 134c 35be de38 ed3c 56ae b43c d8c9 adbd
00000380: 6a9d 203d 2128 9dbd d2af fa3c dbd7 aabd
00000390: a8fe a23d 5944 a53d 1978 39be afbe 46bd
000003a0: 7e65 c4bc 7619 f23d 35d5 0dbd 0abb 76be
000003b0: ac9c 5c3e 0610 13bd d1b2 72be 81cd 0bbc
000003c0: eb26 c13c c929 f9bd 4c5d 27be b9da b73d
000003d0: b067 33be c4e3 80be 401e c33d 2092 163e
000003e0: 0fb4 c0be 89a1 b2bc 0084 473e 92ae b8bd
000003f0: 6891 a7bc 3f82 06bd b56f 4e3e 7294 d33d
0.2150763 -0.38689518 -0.040386163 0.07909283 0.14527047 0.0075199087 0.045081068 0.015705109
-0.26761988 0.047428485 -0.041466083 -0.080905475 -0.15040809 -0.10426113 0.09403609 -0.036769684
0.103597194 -0.2884174 -0.08178634 0.08132532 0.075661264 -0.11734588 -0.24354203 0.13100278
-0.09754626 -0.17897667 0.03900571 0.01749633 0.16121738 -0.12954743 -0.17480981 0.017054632
-0.024072187 -0.3615939 -0.001226973 0.12895486 0.14922947 0.20046005 -0.009268087 -0.017923968
-0.22659415 0.1518685 -0.017279273 -0.0020652679 -0.07873825 -0.081706256 0.021617914 0.09883926
0.015347114 -0.118508644 -0.06470171 0.02442539 0.16469747 -0.07693781 -0.19944063 0.19033368
-0.023683747 -0.40895098 -0.12554878 0.074641846 0.22007288 0.006060903 -0.08746322 -0.015524715
0.027402667 0.035596788 0.004844602 0.0020441636 -0.15626098 0.18183222 0.005864583 -0.09819945
-0.042106096 0.0068135983 0.106215745 0.016668137 0.0024276748 -0.06751203 0.256046 -0.13801143
-0.22038221 0.15862595 -0.06468789 -0.028177386 -0.042875066 -0.12502478 0.25834343 -0.18231407
-0.02814435 0.04589565 -0.016287833 -0.123145945 -0.022967117 0.055657517 -0.16132623 0.09448806
0.23973836 0.01684699 -0.27482584 -0.01653145 0.046748355 -0.042255756 -0.18395153 0.007910685
-0.030251509 -0.07437609 0.06365225 -0.07689566 0.11749715 -0.049078207 -0.024835253 -0.24542184
-0.20195317 0.11899698 -0.1346649 -0.07946588 0.019726748 -0.16478026 0.23330699 -0.22586796
0.11444324 0.14396024 0.04841947 -0.15493734 -0.05693551 0.023824785 -0.17824344 0.02231196
0.2082033 -0.11455495 0.11202469 -0.047746412 -0.04402307 0.056291424 -0.05418619 -0.09902147
-0.25497955 -0.5361069 0.0026493254 0.013014065 -0.03260961 0.16719745 -0.2641659 -0.12168273
-0.123551115 -0.19222195 -0.3578925 -0.17604558 0.06619244 -0.046973586 0.14361666 -0.12709737
-0.0041117687 -0.14632264 -0.3981483 0.110884875 0.23188905 -0.019149523 0.10302493 -0.8470988
0.09181379 -0.075317286 -0.0277322 -0.02565457 -0.08346356 0.004849791 -0.09123741 -0.07222633
-0.010160871 -0.5402647 0.12600522 0.023709679 -0.16319619 0.21499796 -0.0118170995 -0.09213635
0.06518706 -0.1952418 -0.26718003 -0.037122387 0.16666794 0.023847314 -0.011966361 -0.15215312
0.022159748 0.16663362 0.13238631 -0.0036174539 -0.09260782 -0.017917475 -0.023035683 -0.7041526
0.13734935 0.018529411 0.022145705 -0.12471886 0.23500937 -0.18866733 -0.21392344 -0.039953742
0.11223769 0.023520805 -0.028900502 -0.04427984 0.22723782 -0.12885147 0.077556685 0.053857908
-0.080963895 -0.14008622 -0.30256322 0.008253017 -0.39172244 -0.099580444 0.03055575 -0.09594957
-0.40216655 0.0476559 0.2165003 -0.09506699 -0.17704801 0.02895778 0.022055786 -0.08485764
0.03921262 -0.076736696 0.030601416 -0.083419524 0.07958728 0.08069677 -0.1811222 -0.048521694
-0.023974176 0.118212625 -0.03462716 -0.24094787 0.2154414 -0.035903953 -0.23701026 -0.008532883
0.023578128 -0.12166173 -0.16344184 0.08977265 -0.17520022 -0.2517377 0.09527254 0.1470418
-0.37637374 -0.021805542 0.19483948 -0.09017672 -0.020455077 -0.032839056 0.201598 0.10331048

sequential/conv2d_3/Conv2D f4 [128, 2, 2, 64]
00000000: 9842 0ebd 1c5a bcbe b742 22be 14b7 6bbc
00000010: ceb7 37be a533 02bd 844b 50bc 4dc5 d73c
00000020: b0fd 45be 4e74 09be 574f 6b3d ec24 31bd
00000030: 2679 9abd f17d 9fbd 606c 04be 30b6 58be
00000040: 8f02 79bd 5916 003d bf73 113e 9f11 a63c
00000050: c744 99bb 3fa6 52be f8c2 87bd da15 bfbd
00000060: a3ac 7dbe 20d8 7dbe c6a1 4fbe 6126 0b3e
00000070: b450 2ebe d265 11be 5c8a 18be 8106 b1bc
00000080: 3a55 0f3d b085 393e 840a c63c 3f53 09be
00000090: 901a bbbc 54a5 4ebe bebb 9c3d 488c aebd
000000a0: e299 8bbd 1e0b 18bd cc34 173e 6741 2e3e
000000b0: 32cc 87be 5362 08bd 66a9 32be c6fc 1ebe
000000c0: e015 7f3e 504a 173e cf81 80be 4bf1 333e
000000d0: e710 dcbd ed65 40bd b1bc e83c a2ff 073e
000000e0: fcc0 d03c 94ab 733e 20d4 263e fa43 0b3d
000000f0: ed1d c9bd 53b5 f3bd e9d7 1e3e 23cd 80bd
00000100: bb7a 2dbe 744d 9ebe 75bb b6bd c274 653d
00000110: f480 28be ffd3 1cbd ee4c 02bd cfcd 6d3d
00000120: 4bbe aabd edf4 b0bd 5cb8 f739 042b 8d3d
00000130: 2fdf fc3c 01b3 7abc a984 14be 2258 ebbd
00000140: 388a 053d c401 84bc 1935 d23d a431 3b3c
00000150: 90ab 5b3d 05e8 3abe 2cf1 a4bd 1c92 36bc
00000160: 3006 22be 3cad c0bd e582 87be 421d 43bd
00000170: 4e39 80bd 29d9 f0bc d94e 6dbd 4833 34bc
00000180: c8d2 373e fd65 ab3d cd24 e43d 3565 fdbd
00000190: a1f3 1fbe 8f5d 14be 3e14 39bd d11d e23b
000001a0: 0543 88be 1e08 f83c 3646 033e adfc a5bd
000001b0: 6517 52be 564d 833e 9cf9 2dbe f079 dbbd
000001c0: 9bbe 423e 263c aabc ab3e 42be c907 013e
000001d0: 24d0 65bd f03e 37be 9ef5 323d 9ae2 d43d
000001e0: 989b 213d 626a b13d edb7 e2bd c223 993c
000001f0: c858 58bc 8bc9 88bd 76f0 133e f6ba 0d3e
00000200: 14ec 6fbd a4b3 823c 4380 0bbe 4fa0 3a3e
00000210: ba24 5cbe 763a b83d 234b 71bd 2268 123e
00000220: a678 6abe f781 fdbd dac8 d13d 31a9 2ebe
00000230: 12de 91bd c084 36bd 75f8 f8b9 0bd9 113e
00000240: 4230 c83d 75c1 283d e66c 67be d5c5 3cbe
00000250: 519c 7ebe 7398 24bd 0b10 85bd 996b 10bd
00000260: 9eac d83d 1019 0d3e 03b6 d9bd dc3d e93d
00000270: f2e1 cfbc e53a 11bc a3d3 8ebc 1aa4 8ebd
00000280: 20e6 abbe ac68 49be 0f2f 98bd 0f97 4a3e
00000290: e469 cebd 1edc 463e 52cc d4bd ba7b 9f3d
000002a0: c2d3 4cbe 6164 b2bd 738a 873d 6d62 c1bd
000002b0: c8f3 e8bc 09ed 273d d7a3 fc3c 0385 163c
000002c0: 1401 8c3d b93a 90bd 5888 8a3e c3a6 0fbe
000002d0: b1cd 39be 50ac acbd 10b7 a4be a4ac 17be
000002e0: 8c62 73bd 96bd 06be 6d81 9b3d 2dcb a43d
000002f0: 3cf1 4e3d 2d38 64be bdf2 a4bd 27e2 b6bd
00000300: d07d b6bd 1d27 353d 0b80 803d bfc5 523d
00000310: b254 36be d0f6 0abc 312e c1bd 63a4 743e
00000320: a753 41be 73dc c8bd 21dd 51ba e6c0 8cbc
00000330: bcfc 5abd 8b9c df3c 1329 b0bc 1e05 0d3e
00000340: 0db7 9cbd 283e babd cc99 7ebe 4ddd cbbc
00000350: 4fc3 0f3c c630 04bd c7b1 9fbd a8d6 903d
00000360: a860 a4bd 5670 373e a071 34bd 94a5 d1bc
00000370: 6195 58bc 0d41 5fbd 16ad 18bd d06b 52bd
00000380: cb5a 9abe b5e6 6dbe 6479 18be dd7e 8d3d
00000390: c50a 00be 6f53 173e 2140 3bbe 4947 4c3e
000003a0: 4995 d6bd 4966 89be 337a 43bc 8322 85bd
000003b0: 4036 3abe 4452 83bc fee8 df3d d98c 423e
000003c0: 19eb 2bbe d178 51bd 8ca3 173c 314b dcbd
000003d0: 9507 fdbd 371e 51be 6251 fc3c 6f3f aabe
000003e0: bdd5 8b3c d2e2 1cbe 1e2c 413d c800 1fbc
000003f0: 2506 85ba 065a e5bc 8fba 40be 8645 edbc
-0.034731477 -0.36787498 -0.15845762 -0.014386911 -0.1794121 -0.031787533 -0.012713317 0.026339198
-0.19335055 -0.13423273 0.05744871 -0.043248102 -0.075426385 -0.07787693 -0.12931967 -0.21163249
-0.060793456 0.031271312 0.1420431 0.020272074 -0.0046773884 -0.2057123 -0.06628984 -0.0933034
-0.24772887 -0.24789476 -0.20276555 0.13588859 -0.17022973 -0.14198998 -0.1489653 -0.021609547
0.034993388 0.18117404 0.024174936 -0.13410662 -0.022839814 -0.20180255 0.076529965 -0.0852285
-0.0681646 -0.037119977 0.14766234 0.17017137 -0.26522976 -0.033296894 -0.17447433 -0.15526113
0.24910688 0.14774442 -0.25099036 0.17572515 -0.10745411 -0.046972204 0.028410288 0.1328111
0.025482647 0.2379592 0.16291857 0.034000374 -0.09820161 -0.11899819 0.1551205 -0.06289127
-0.16941349 -0.30918467 -0.08922473 0.056019552 -0.16455442 -0.038288113 -0.031811647 0.058057602
-0.08337077 -0.08640466 0.0004724887 0.0689297 0.030868141 -0.015301467 -0.14503731 -0.114914194
0.03260252 -0.016114123 0.10264034 0.0114254095 0.05363041 -0.18252571 -0.080538124 -0.011143234
-0.15822673 -0.09408042 -0.26467052 -0.047635324 -0.0626093 -0.029400425 -0.057936523 -0.0109985545
0.179515 0.08369062 0.11139832 -0.12372819 -0.15620281 -0.14488815 -0.04518532 0.006900527
-0.26613632 0.030277308 0.12819752 -0.08104835 -0.20516737 0.2564494 -0.1698975 -0.10716617
0.19018023 -0.020780634 -0.18969218 0.12600626 -0.0561067 -0.17895103 0.04369127 0.10394783
0.039455026 0.08662869 -0.11070237 0.018693808 -0.013204761 -0.06679066 0.14447197 0.13840851
-0.05857475 0.0159548 -0.13623147 0.18225215 -0.21498385 0.089955255 -0.058909547 0.14297536
-0.22897586 -0.123783045 0.102433875 -0.17056729 -0.07122435 -0.044560194 -0.0004748736 0.14242952
0.097748294 0.04120012 -0.22600135 -0.18434842 -0.24864317 -0.04018445 -0.064972006 -0.035258863
0.10579799 0.13779092 -0.10630419 0.11388752 -0.025376294 -0.008864139 -0.0174349 -0.06964894
-0.3357401 -0.19668835 -0.07430851 0.19784187 -0.10078791 0.19419906 -0.103905335 0.07787271
-0.20002654 -0.08710552 0.06618204 -0.09442601 -0.028436556 0.04099754 0.030839844 0.009186986
0.06836143 -0.070424505 0.27057147 -0.14028458 -0.18144871 -0.084313035 -0.32170916 -0.14811951
-0.059420153 -0.13158259 0.075930454 0.08046565 0.050523028 -0.22287054 -0.08054111 -0.08929854
-0.089107156 0.044226754 0.06274422 0.051458117 -0.17805746 -0.008481696 -0.094326384 0.23890834
-0.18879567 -0.09807672 -0.0008005668 -0.017181825 -0.053463683 0.027296325 -0.02150396 0.13771483
-0.07652102 -0.090938866 -0.24863356 -0.024885798 0.008774593 -0.032273076 -0.0779758 0.070721924
-0.08026248 0.17913947 -0.044053674 -0.02559165 -0.013219208 -0.054505397 -0.037274443 -0.05137235
-0.30147395 -0.23232539 -0.14890057 0.06908963 -0.12504108 0.14777921 -0.18286182 0.19949068
-0.10477693 -0.2683585 -0.01193099 -0.06500723 -0.18184757 -0.016030438 0.109331116 0.18999042
-0.16788901 -0.05114061 0.009255301 -0.10756529 -0.12354962 -0.20421682 0.030800525 -0.3325152
0.017069692 -0.153209 0.047161214 -0.009704776 -0.0010148926 -0.027997028 -0.18821166 -0.028963815

sequential/dense/BiasAdd/ReadVariableOp f4 [6]
00000000: ae10 88bd cef3 dcbd 1cee fcbd 8ff4 f73d
00000010: eaf5 4c3c d25c 133e
-0.066438064 -0.107886896 -0.12350103 0.12107193 0.012509802 0.14390877

sequential/dense/MatMul f4 [6, 128]
00000000: bb6f eabd 6a2b 5b3b 86b1 ca3c dac2 3abd
00000010: a0dc 13be f91e 5e3e f731 283e 62d6 5e3e
00000020: c212 03be fb08 163c 46b3 e03d 9280 9abe
00000030: 3e97 2e3e e983 efbd 62c4 d73e a766 f1bd
00000040: 9695 a7bc fb02 cebd 25e7 6c3e 02f8 8fbe
00000050: 6fe9 673e babe d1bd cffb 353e 44b3 1a3d
00000060: b8b9 233e 2732 71be 3453 a9be 05fa 7cbe
00000070: 5e53 303e b4be 593d 3769 e7be ec28 91be
00000080: 4c40 b73e 95dd 393c 36db 813e 4bc5 38be
00000090: e381 20bd c8cb 1c3e 1a5a 9b3e 5d8a d3be
000000a0: ec31 7e3e dfe7 b43e caf7 57be bacd b1bd
000000b0: 83f6 673e 00c8 283e 41de 59be 5601 99ba
000000c0: 0631 b3bd 43db 9c3e 7703 98be 0f8e e0bd
000000d0: f693 44be 2bd1 47be cf17 0cbe 14a2 883d
000000e0: 5a23 b1bd f1be 423e a983 0b3e 01f2 ce3c
000000f0: 125b 0d3f 83af 67be 1145 95bb 7292 3f3e
00000100: a266 abbe fcda 943d 52ba 84be 8edf 9a3c
00000110: 61bc 493e f46f a2bd 802b 6f3e 40b9 883e
00000120: 19ff 1d3e fea1 863e 8c20 25be 55cc 6e3e
00000130: fbc1 c7bc ab13 c53d 5af6 033f 6f66 92be
00000140: 3652 a5be 4aaa e43d 6adb 80bc 2bd3 8d3e
00000150: 07e4 febe 98a6 50bd 979e 9b3e 305a b0be
00000160: 0320 14be 5f1b ae3d 890b a03c edd2 6a3e
00000170: c4dc 29be 5acb 0c3e ba2a b03b f190 39bc
00000180: f7ab 063e 5358 a5bd 4e6f 64be 9451 173e
00000190: 2fed 7abe d565 91be 0e4b f4ba 8afb 8f3e
000001a0: 5163 fcbe 8f79 053e 26a6 33be e0aa 79be
000001b0: ebbd c33e 7b3b 663d 944e f3bc 28a6 d9be
000001c0: 4ae5 e13d e14f d8bd 2a36 213e fbf0 cf3e
000001d0: a915 9dbe cefa 913d 8009 79be acba ebbd
000001e0: 115d 9dbc 5b1c 003d d11e 003e 4159 cebe
000001f0: 0cac d93c f9c7 f8bc 3ec6 213e 73d8 61bc
00000200: fb73 913e fcd1 713e c126 a5be c406 543e
00000210: 5d3f b4bd bcf6 aebe 0b94 66be 5c04 88be
00000220: 7c64 75bd af13 b43c f8bb c6be 0796 9e3e
00000230: 0fa9 7b3e 735e 70be f095 2dbd 56f8 b2be
00000240: 04e5 64be 3bb7 35be a6bb b5be 5fe2 72be
00000250: 73d9 cc3e 2c4c 1cbe 6fdb 2bbd a709 8fbd
00000260: 002c a8be 48a3 ee3d 4dbe bebd cbc0 ccbd
00000270: bd6c b93e 5ca2 373e fa6e 41bd 309c 63bd
00000280: 3494 6abe 5c26 67be fc24 9a3d da12 f9bd
00000290: 2ca0 8b3d 011a 90be bbe0 59bd 361a af3d
000002a0: 4bd4 afbe 5fc6 363e d3f4 3dbe 062d 48be
000002b0: cb5c 133e 29f0 3bbe 1945 883e 6b65 853e
000002c0: c9f0 3dbd 50fb 5ebe d27c ab3c d77e 003e
000002d0: 6915 a73d 33a3 cabd 31ac 0d3e 6ce0 e33e
000002e0: 83c4 22be 0f3f f13d 14cd 28be 9238 96bc
000002f0: ad2b 413d 940b 1ebe 14fb 75be 2646 18bd
00000300: 2934 843e 558c b73e 9b3c b8be 953e a4be
00000310: 8f78 6f3e 3534 c43e 2dbb c9be 67fa 45bd
00000320: 9eb9 a73e 6800 c6bd 3131 c4bb 2aae 8d3e
00000330: 0e5d a4be 823e c8be 5513 5abe 2fff 5c3d
00000340: 49e6 9fbd 4e4c 2cbe 3b10 ccbe 38c7 1f3e
00000350: cf25 43bc e0dd dcbd 3d8a a6bd 4a2c 1b3e
00000360: 1049 3f3d d3ce 9f3e c433 45be 16d1 8e3e
00000370: 5192 bd3d 5f11 d4bc 9043 073e 4d39 693e
00000380: bbb9 6e3e de59 a23c 9986 033e 3f7c cfbe
00000390: 7d2e 793e bc9e 7dbe 068b d8be afff 3dbe
000003a0: 3510 08be 2012 1f3e 17d6 103e 738b 823e
000003b0: 1949 9bbe d939 91bb 4705 773d edda c23b
000003c0: eaa1 dcbe ec27 0c3d 7444 8c3e edad d53d
000003d0: 5af7 a53e 8667 31bd d0b6 623e 915b 14be
000003e0: 82f8 ec3d 94a4 8f3d 8476 1f3c 9227 e13e
000003f0: 7e88 9eb9 3356 083d e979 b13e e69d 503c
-0.11447092 0.0033442625 0.024742853 -0.04559598 -0.1443963 0.21691503 0.1642531 0.21761468
-0.12800124 0.009157415 0.10971694 -0.30176216 0.17049882 -0.11695082 0.42142016 -0.117871575
-0.02045707 -0.10059162 0.2313505 -0.28118902 0.22647642 -0.10241456 0.17771839 0.037768617
0.15988815 -0.23554288 -0.3307129 -0.2470475 0.17219302 0.053160384 -0.4519746 -0.28351533
0.35791242 0.011344333 0.25362557 -0.18044011 -0.03918637 0.15312111 0.3034218 -0.413165
0.24823731 0.35333154 -0.21090618 -0.08681817 0.2265263 0.16482544 -0.2127619 -0.0011673372
-0.08749585 0.30636033 -0.29690143 -0.109645955 -0.19197068 -0.19513385 -0.13680957 0.06671539
-0.08649321 0.19018151 0.13624443 0.02526188 0.5521709 -0.22625546 -0.0045553525 0.18708208
-0.3347674 0.072683305 -0.259234 0.018905427 0.19700767 -0.079315096 0.23356438 0.26703835
0.15429343 0.26295465 -0.16125697 0.23320134 -0.02438449 0.09622892 0.5154778 -0.28593776
-0.32289284 0.111652926 -0.015729625 0.2770017 -0.49783346 -0.050940126 0.30394432 -0.34443808
-0.14465337 0.08501314 0.01953675 0.22932024 -0.16588122 0.13749447 0.005376187 -0.011326061
0.13151537 -0.08073487 -0.22308084 0.14777213 -0.24504541 -0.28398004 -0.0018638091 0.28121597
-0.49294522 0.13034652 -0.1754385 -0.2438159 0.38230833 0.05620907 -0.029700555 -0.4250958
0.110300615 -0.10562111 0.15743318 0.4061354 -0.30680588 0.07127915 -0.2432003 -0.11510214
-0.019209417 0.031277042 0.12511756 -0.4030247 0.026571296 -0.030368792 0.1579828 -0.013784516
0.284088 0.23615259 -0.3225613 0.20705706 -0.08801148 -0.34172618 -0.22517411 -0.26565826
-0.059910282 0.021982042 -0.38815284 0.30973837 0.2457621 -0.2347353 -0.04237932 -0.3495509
-0.22352988 -0.17745678 -0.35494727 -0.23719166 0.4000965 -0.15263432 -0.041957315 -0.06984263
-0.3284607 0.11652237 -0.09313641 -0.0999771 0.36215773 0.17933029 -0.047224976 -0.055568874
-0.22908098 -0.22573227 0.075265855 -0.12161799 0.0681766 -0.2814484 -0.053192835 0.08549921
-0.34341654 0.1784911 -0.18550424 -0.19548425 0.14390866 -0.18353333 0.26615217 0.26053938
-0.04637221 -0.21775556 0.020933542 0.12548386 0.081583805 -0.09894409 0.13835217 0.44507158
-0.15895276 0.117796056 -0.16484481 -0.018337522 0.047160793 -0.15434104 -0.2402156 -0.037176274
0.25821045 0.35849252 -0.35983738 -0.32078996 0.23385833 0.3832108 -0.39400616 -0.048334505
0.32758802 -0.09668046 -0.0059873094 0.2767194 -0.32102245 -0.3911019 -0.21296437 0.0539543
-0.07807595 -0.16825983 -0.39856133 0.1560334 -0.01191087 -0.10784507 -0.081318356 0.15153614
0.046700537 0.31212482 -0.19258028 0.27893895 0.09256423 -0.02588719 0.13209367 0.22775765
0.23313038 0.019818243 0.12844314 -0.4052448 0.2433414 -0.24767584 -0.42293566 -0.18554567
-0.13287432 0.15534258 0.14144169 0.25497016 -0.30329207 -0.004431945 0.060307767 0.005946508
-0.4309228 0.03421776 0.27395976 0.10433564 0.32415277 -0.04331162 0.2214005 -0.14488055
0.115708366 0.07013813 0.009732846 0.43975502 -0.00030237803 0.03328533 0.34663323 0.012732958
